Loading data
Number of tasks = 1
Splitting data with seed 0
Class sizes
p_np 0: 23.49%, 1: 76.51%
Total size = 2,039 | train size = 1,631 | val size = 204 | test size = 204
Building model 0
MoleculeModel(
  (sigmoid): Sigmoid()
  (encoder): MPN(
    (encoder): MPNEncoder(
      (dropout_layer): Dropout(p=0.4, inplace=False)
      (act_func): LeakyReLU(negative_slope=0.1)
      (W_i_atom): Linear(in_features=133, out_features=240, bias=False)
      (W_i_bond): Linear(in_features=147, out_features=240, bias=False)
      (W_h_atom): Linear(in_features=387, out_features=240, bias=False)
      (W_h_0): Linear(in_features=240, out_features=240, bias=False)
      (W_o): Linear(in_features=480, out_features=240, bias=True)
      (gru): BatchGRU(
        (gru): GRU(240, 240, batch_first=True, bidirectional=True)
      )
      (lr): Linear(in_features=720, out_features=240, bias=False)
      (attention): MultiheadAttention(
        (out_proj): NonDynamicallyQuantizableLinear(in_features=240, out_features=240, bias=True)
      )
    )
  )
  (ffn): Sequential(
    (0): Dropout(p=0.4, inplace=False)
    (1): Linear(in_features=240, out_features=240, bias=True)
    (2): LeakyReLU(negative_slope=0.1)
    (3): Dropout(p=0.4, inplace=False)
    (4): Linear(in_features=240, out_features=240, bias=True)
    (5): LeakyReLU(negative_slope=0.1)
    (6): Dropout(p=0.4, inplace=False)
    (7): Linear(in_features=240, out_features=2, bias=True)
  )
)
Number of parameters = 1,547,762
Moving model to cuda
Epoch 0
Validation auc = 0.749612  Test auc = 0.550824
Epoch 1
Validation auc = 0.844623  Test auc = 0.585413
Epoch 2
Validation auc = 0.988548  Test auc = 0.660757
Epoch 3
Validation auc = 0.993012  Test auc = 0.666153
Epoch 4
Validation auc = 0.992236  Test auc = 0.675402
Epoch 5
Validation auc = 0.988645  Test auc = 0.681954
…
Validation auc = 0.991460  Test auc = 0.745544
Epoch 87
Validation auc = 0.991071  Test auc = 0.744773
Epoch 88
Validation auc = 0.991751  Test auc = 0.743039
Epoch 89
Validation auc = 0.991848  Test auc = 0.744099
Best Validation auc = 0.997283  Best Test auc = 0.759129
Loading data
Number of tasks = 1
Splitting data with seed 0
Class sizes
Class 0: 54.33%, 1: 45.67%
Total size = 1,513 | train size = 1,210 | val size = 151 | test size = 152
Building model 0
MoleculeModel(
  (sigmoid): Sigmoid()
  (encoder): MPN(
    (encoder): MPNEncoder(
      (dropout_layer): Dropout(p=0.0, inplace=False)
      (act_func): ReLU()
      (W_i_atom): Linear(in_features=133, out_features=300, bias=False)
      (W_i_bond): Linear(in_features=147, out_features=300, bias=False)
      (W_h_atom): Linear(in_features=447, out_features=300, bias=False)
      (W_h_0): Linear(in_features=300, out_features=300, bias=False)
      (W_h_1): Linear(in_features=300, out_features=300, bias=False)
      (W_o): Linear(in_features=600, out_features=300, bias=True)
      (gru): BatchGRU(
        (gru): GRU(300, 300, batch_first=True, bidirectional=True)
      )
      (lr): Linear(in_features=900, out_features=300, bias=False)
      (attention): MultiheadAttention(
        (out_proj): NonDynamicallyQuantizableLinear(in_features=300, out_features=300, bias=True)
      )
    )
  )
  (ffn): Sequential(
    (0): Dropout(p=0.0, inplace=False)
    (1): Linear(in_features=300, out_features=300, bias=True)
    (2): ReLU()
    (3): Dropout(p=0.0, inplace=False)
    (4): Linear(in_features=300, out_features=2, bias=True)
  )
)
Number of parameters = 2,384,402
Moving model to cuda
Epoch 0
Validation auc = 0.530206  Test auc = 0.754167
Epoch 1
Validation auc = 0.574449  Test auc = 0.616304
Epoch 2
Validation auc = 0.496979  Test auc = 0.652174
Epoch 3
Validation auc = 0.543710  Test auc = 0.684420
Epoch 4
Validation auc = 0.572850  Test auc = 0.748732
Epoch 5
Validation auc = 0.627399  Test auc = 0.762681
…
NR-AR 0: 95.76%, 1: 4.24%
NR-AR-LBD 0: 96.49%, 1: 3.51%
NR-AhR 0: 88.26%, 1: 11.74%
NR-Aromatase 0: 94.84%, 1: 5.16%
NR-ER 0: 87.21%, 1: 12.79%
NR-ER-LBD 0: 94.98%, 1: 5.02%
NR-PPAR-gamma 0: 97.11%, 1: 2.89%
SR-ARE 0: 83.83%, 1: 16.17%
SR-ATAD5 0: 96.26%, 1: 3.74%
SR-HSE 0: 94.24%, 1: 5.76%
SR-MMP 0: 84.18%, 1: 15.82%
SR-p53 0: 93.75%, 1: 6.25%
Total size = 7,823 | train size = 6,258 | val size = 782 | test size = 783
Building model 0
MoleculeModel(
  (sigmoid): Sigmoid()
  (encoder): MPN(
    (encoder): MPNEncoder(
      (dropout_layer): Dropout(p=0.0, inplace=False)
      (act_func): ReLU()
      (W_i_atom): Linear(in_features=133, out_features=300, bias=False)
      (W_i_bond): Linear(in_features=147, out_features=300, bias=False)
      (W_h_atom): Linear(in_features=447, out_features=300, bias=False)
      (W_h_0): Linear(in_features=300, out_features=300, bias=False)
      (W_h_1): Linear(in_features=300, out_features=300, bias=False)
      (W_o): Linear(in_features=600, out_features=300, bias=True)
      (gru): BatchGRU(
        (gru): GRU(300, 300, batch_first=True, bidirectional=True)
      )
      (lr): Linear(in_features=900, out_features=300, bias=False)
      (attention): MultiheadAttention(
        (out_proj): NonDynamicallyQuantizableLinear(in_features=300, out_features=300, bias=True)
      )
    )
  )
  (ffn): Sequential(
    (0): Dropout(p=0.0, inplace=False)
    (1): Linear(in_features=300, out_features=300, bias=True)
    (2): ReLU()
    (3): Dropout(p=0.0, inplace=False)
    (4): Linear(in_features=300, out_features=24, bias=True)
  )
)
Number of parameters = 2,391,024
Moving model to cuda
Epoch 0
Validation auc = 0.676510  Test auc = 0.655643
Epoch 1
Validation auc = 0.728183  Test auc = 0.711621
Epoch 2
Validation auc = 0.743029  Test auc = 0.691854
Epoch 3
Validation auc = 0.776610  Test auc = 0.724439
Epoch 4
Validation auc = 0.775217  Test auc = 0.721158
Epoch 5
Validation auc = 0.697969  Test auc = 0.687434
…
Psychiatric_disorders 0: 28.80%, 1: 71.20%
Renal_and_urinary_disorders 0: 36.16%, 1: 63.84%
Pregnancy,_puerperium_and_perinatal_conditions 0: 91.24%, 1: 8.76%
Ear_and_labyrinth_disorders 0: 53.82%, 1: 46.18%
Cardiac_disorders 0: 30.76%, 1: 69.24%
Nervous_system_disorders 0: 8.62%, 1: 91.38%
Injury,_poisoning_and_procedural_complications 0: 33.71%, 1: 66.29%
Total size = 1,427 | train size = 1,141 | val size = 143 | test size = 143
Building model 0
MoleculeModel(
  (sigmoid): Sigmoid()
  (encoder): MPN(
    (encoder): MPNEncoder(
      (dropout_layer): Dropout(p=0.0, inplace=False)
      (act_func): ReLU()
      (W_i_atom): Linear(in_features=133, out_features=300, bias=False)
      (W_i_bond): Linear(in_features=147, out_features=300, bias=False)
      (W_h_atom): Linear(in_features=447, out_features=300, bias=False)
      (W_h_0): Linear(in_features=300, out_features=300, bias=False)
      (W_h_1): Linear(in_features=300, out_features=300, bias=False)
      (W_o): Linear(in_features=600, out_features=300, bias=True)
      (gru): BatchGRU(
        (gru): GRU(300, 300, batch_first=True, bidirectional=True)
      )
      (lr): Linear(in_features=900, out_features=300, bias=False)
      (attention): MultiheadAttention(
        (out_proj): NonDynamicallyQuantizableLinear(in_features=300, out_features=300, bias=True)
      )
    )
  )
  (ffn): Sequential(
    (0): Dropout(p=0.0, inplace=False)
    (1): Linear(in_features=300, out_features=300, bias=True)
    (2): ReLU()
    (3): Dropout(p=0.0, inplace=False)
    (4): Linear(in_features=300, out_features=54, bias=True)
  )
)
Number of parameters = 2,400,054
Moving model to cuda
Epoch 0
Validation auc = 0.530819  Test auc = 0.526904
Epoch 1
Validation auc = 0.516493  Test auc = 0.544279
Epoch 2
Validation auc = 0.525863  Test auc = 0.549257
Epoch 3
Validation auc = 0.526944  Test auc = 0.555823
Epoch 4
Validation auc = 0.533755  Test auc = 0.582159
Epoch 5
Validation auc = 0.533652  Test auc = 0.596029
…
Validation auc = 0.556700  Test auc = 0.594182
Epoch 86
Validation auc = 0.560849  Test auc = 0.592599
Epoch 87
Validation auc = 0.561479  Test auc = 0.594608
Epoch 88
Validation auc = 0.569114  Test auc = 0.594538
Epoch 89
Validation auc = 0.569447  Test auc = 0.592532
Best Validation auc = 0.584718  Best Test auc = 0.647829
Loading data
Number of tasks = 1
Splitting data with seed 0
Total size = 1,128 | train size = 902 | val size = 113 | test size = 113
Fitting scaler
Building model 0
MoleculeModel(
  (encoder): MPN(
    (encoder): MPNEncoder(
      (dropout_layer): Dropout(p=0.0, inplace=False)
      (act_func): ReLU()
      (W_i_atom): Linear(in_features=133, out_features=300, bias=False)
      (W_i_bond): Linear(in_features=147, out_features=300, bias=False)
      (W_h_atom): Linear(in_features=447, out_features=300, bias=False)
      (W_h_0): Linear(in_features=300, out_features=300, bias=False)
      (W_h_1): Linear(in_features=300, out_features=300, bias=False)
      (W_o): Linear(in_features=600, out_features=300, bias=True)
      (gru): BatchGRU(
        (gru): GRU(300, 300, batch_first=True, bidirectional=True)
      )
      (lr): Linear(in_features=900, out_features=300, bias=False)
      (attention): MultiheadAttention(
        (out_proj): NonDynamicallyQuantizableLinear(in_features=300, out_features=300, bias=True)
      )
    )
  )
  (ffn): Sequential(
    (0): Dropout(p=0.0, inplace=False)
    (1): Linear(in_features=300, out_features=300, bias=True)
    (2): ReLU()
    (3): Dropout(p=0.0, inplace=False)
  )
  (mu_layer): Linear(in_features=300, out_features=1, bias=True)
  (evidence_layer): Linear(in_features=300, out_features=3, bias=True)
)
Number of parameters = 2,385,004
Moving model to cuda
Epoch 0
Validation rmse = 1.645790  Test rmse = 1.705878
Epoch 1
Validation rmse = 1.342833  Test rmse = 1.355731
Epoch 2
Validation rmse = 1.339878  Test rmse = 1.417227
Epoch 3
Validation rmse = 1.383034  Test rmse = 1.298944
Epoch 4
Validation rmse = 1.078947  Test rmse = 1.128489
Epoch 5
Validation rmse = 1.064059  Test rmse = 1.028574
…
Validation rmse = 0.766168  Test rmse = 0.846418
Epoch 87
Validation rmse = 0.778360  Test rmse = 0.843589
Epoch 88
Validation rmse = 0.782265  Test rmse = 0.850914
Epoch 89
Validation rmse = 0.762670  Test rmse = 0.834118
Best Validation rmse = 0.735665  Best Test rmse = 0.819009
Loading data
Number of tasks = 1
Splitting data with seed 0
Total size = 642 | train size = 513 | val size = 64 | test size = 65
Fitting scaler
Building model 0
MoleculeModel(
  (encoder): MPN(
    (encoder): MPNEncoder(
      (dropout_layer): Dropout(p=0.5, inplace=False)
      (act_func): LeakyReLU(negative_slope=0.1)
      (W_i_atom): Linear(in_features=133, out_features=480, bias=False)
      (W_i_bond): Linear(in_features=147, out_features=480, bias=False)
      (W_h_atom): Linear(in_features=627, out_features=480, bias=False)
      (W_h_0): Linear(in_features=480, out_features=480, bias=False)
      (W_o): Linear(in_features=960, out_features=480, bias=True)
      (gru): BatchGRU(
        (gru): GRU(480, 480, batch_first=True, bidirectional=True)
      )
      (lr): Linear(in_features=1440, out_features=480, bias=False)
      (attention): MultiheadAttention(
        (out_proj): NonDynamicallyQuantizableLinear(in_features=480, out_features=480, bias=True)
      )
    )
  )
  (ffn): Sequential(
    (0): Dropout(p=0.5, inplace=False)
  )
  (mu_layer): Linear(in_features=480, out_features=1, bias=True)
  (evidence_layer): Linear(in_features=480, out_features=3, bias=True)
)
Number of parameters = 5,514,724
Moving model to cuda
Epoch 0
Validation rmse = 6.119422  Test rmse = 4.151292
Epoch 1
Validation rmse = 5.615259  Test rmse = 3.569971
Epoch 2
Validation rmse = 5.596583  Test rmse = 3.503252
Epoch 3
Validation rmse = 4.476580  Test rmse = 2.308047
Epoch 4
Validation rmse = 5.262574  Test rmse = 3.098018
Epoch 5
Validation rmse = 4.738764  Test rmse = 2.882133
…
Validation rmse = 2.274079  Test rmse = 2.057990
Epoch 97
Validation rmse = 1.907408  Test rmse = 1.772098
Epoch 98
Validation rmse = 2.194758  Test rmse = 1.784555
Epoch 99
Validation rmse = 2.524108  Test rmse = 1.934304
Best Validation rmse = 1.661481  Best Test rmse = 1.570663
Loading data
Number of tasks = 1
Splitting data with seed 0
Total size = 4,200 | train size = 3,360 | val size = 420 | test size = 420
Fitting scaler
Building model 0
MoleculeModel(
  (encoder): MPN(
    (encoder): MPNEncoder(
      (dropout_layer): Dropout(p=0.1, inplace=False)
      (act_func): LeakyReLU(negative_slope=0.1)
      (W_i_atom): Linear(in_features=133, out_features=480, bias=False)
      (W_i_bond): Linear(in_features=147, out_features=480, bias=False)
      (W_h_atom): Linear(in_features=627, out_features=480, bias=False)
      (W_h_0): Linear(in_features=480, out_features=480, bias=False)
      (W_h_1): Linear(in_features=480, out_features=480, bias=False)
      (W_o): Linear(in_features=960, out_features=480, bias=True)
      (gru): BatchGRU(
        (gru): GRU(480, 480, batch_first=True, bidirectional=True)
      )
      (lr): Linear(in_features=1440, out_features=480, bias=False)
      (attention): MultiheadAttention(
        (out_proj): NonDynamicallyQuantizableLinear(in_features=480, out_features=480, bias=True)
      )
    )
  )
  (ffn): Sequential(
    (0): Dropout(p=0.1, inplace=False)
  )
  (mu_layer): Linear(in_features=480, out_features=1, bias=True)
  (evidence_layer): Linear(in_features=480, out_features=3, bias=True)
)
Number of parameters = 5,745,124
Moving model to cuda
Epoch 0
Validation rmse = 1.202360  Test rmse = 1.112699
Epoch 1
Validation rmse = 1.212135  Test rmse = 1.112012
Epoch 2
Validation rmse = 1.202172  Test rmse = 1.107099
Epoch 3
Validation rmse = 1.017907  Test rmse = 0.932868
Epoch 4
Validation rmse = 1.039169  Test rmse = 0.913257
Epoch 5
Validation rmse = 0.994537  Test rmse = 0.880394
…
Validation rmse = 0.743686  Test rmse = 0.738470
Epoch 92
Validation rmse = 0.707074  Test rmse = 0.715389
Epoch 93
Validation rmse = 0.824277  Test rmse = 0.825904
Epoch 94
Validation rmse = 0.838576  Test rmse = 0.793486
Best Validation rmse = 0.631140  Best Test rmse = 0.661933
Loading data
Number of tasks = 1
Splitting data with seed 0
Total size = 4,200 | train size = 3,360 | val size = 420 | test size = 420
Fitting scaler
Building model 0
MoleculeModel(
  (encoder): MPN(
    (encoder): MPNEncoder(
      (dropout_layer): Dropout(p=0.1, inplace=False)
      (act_func): LeakyReLU(negative_slope=0.1)
      (W_i_atom): Linear(in_features=133, out_features=480, bias=False)
      (W_i_bond): Linear(in_features=147, out_features=480, bias=False)
      (W_h_atom): Linear(in_features=627, out_features=480, bias=False)
      (W_h_0): Linear(in_features=480, out_features=480, bias=False)
      (W_h_1): Linear(in_features=480, out_features=480, bias=False)
      (W_o): Linear(in_features=960, out_features=480, bias=True)
      (gru): BatchGRU(
        (gru): GRU(480, 480, batch_first=True, bidirectional=True)
      )
      (lr): Linear(in_features=1440, out_features=480, bias=False)
      (attention): MultiheadAttention(
        (out_proj): NonDynamicallyQuantizableLinear(in_features=480, out_features=480, bias=True)
      )
    )
  )
  (ffn): Sequential(
    (0): Dropout(p=0.1, inplace=False)
  )
  (mu_layer): Linear(in_features=480, out_features=1, bias=True)
  (evidence_layer): Linear(in_features=480, out_features=3, bias=True)
)
Number of parameters = 5,745,124
Moving model to cuda
Epoch 0
Validation rmse = 1.202360  Test rmse = 1.112699
Epoch 1
Validation rmse = 1.212135  Test rmse = 1.112012
Epoch 2
Validation rmse = 1.202172  Test rmse = 1.107099
Epoch 3
Loading data
Number of tasks = 1
Splitting data with seed 0
Total size = 4,200 | train size = 3,360 | val size = 420 | test size = 420
Fitting scaler
Building model 0
MoleculeModel(
  (encoder): MPN(
    (encoder): MPNEncoder(
      (dropout_layer): Dropout(p=0.1, inplace=False)
      (act_func): LeakyReLU(negative_slope=0.1)
      (W_i_atom): Linear(in_features=133, out_features=480, bias=False)
      (W_i_bond): Linear(in_features=147, out_features=480, bias=False)
      (W_h_atom): Linear(in_features=627, out_features=480, bias=False)
      (W_h_0): Linear(in_features=480, out_features=480, bias=False)
      (W_h_1): Linear(in_features=480, out_features=480, bias=False)
      (W_o): Linear(in_features=960, out_features=480, bias=True)
      (gru): BatchGRU(
        (gru): GRU(480, 480, batch_first=True, bidirectional=True)
      )
      (lr): Linear(in_features=1440, out_features=480, bias=False)
      (attention): MultiheadAttention(
        (out_proj): NonDynamicallyQuantizableLinear(in_features=480, out_features=480, bias=True)
      )
    )
  )
  (ffn): Sequential(
    (0): Dropout(p=0.1, inplace=False)
  )
  (mu_layer): Linear(in_features=480, out_features=1, bias=True)
  (evidence_layer): Linear(in_features=480, out_features=3, bias=True)
)
Number of parameters = 5,745,124
Moving model to cuda
Epoch 0
Validation rmse = 1.203174  Test rmse = 1.115120
Epoch 1
Validation rmse = 1.309902  Test rmse = 1.145914
Epoch 2
Validation rmse = 1.205862  Test rmse = 1.104853
Epoch 3
Validation rmse = 1.107666  Test rmse = 0.993832
Epoch 4
Validation rmse = 0.999152  Test rmse = 0.936489
Epoch 5
Validation rmse = 0.988606  Test rmse = 0.874385
…
Validation rmse = 0.747876  Test rmse = 0.756970
Epoch 93
Validation rmse = 0.807336  Test rmse = 0.796750
Epoch 94
Validation rmse = 0.799929  Test rmse = 0.771340
Best Validation rmse = 0.638967  Best Test rmse = 0.647926
Loading data
Number of tasks = 2
Splitting data with seed 0
Class sizes
FDA_APPROVED 0: 6.36%, 1: 93.64%
CT_TOX 0: 92.42%, 1: 7.58%
Total size = 1,478 | train size = 1,182 | val size = 148 | test size = 148
Building model 0
MoleculeModel(
  (sigmoid): Sigmoid()
  (encoder): MPN(
    (encoder): MPNEncoder(
      (dropout_layer): Dropout(p=0.1, inplace=False)
      (act_func): LeakyReLU(negative_slope=0.1)
      (W_i_atom): Linear(in_features=133, out_features=360, bias=False)
      (W_i_bond): Linear(in_features=147, out_features=360, bias=False)
      (W_h_atom): Linear(in_features=507, out_features=360, bias=False)
      (W_h_0): Linear(in_features=360, out_features=360, bias=False)
      (W_o): Linear(in_features=720, out_features=360, bias=True)
      (gru): BatchGRU(
        (gru): GRU(360, 360, batch_first=True, bidirectional=True)
      )
      (lr): Linear(in_features=1080, out_features=360, bias=False)
      (attention): MultiheadAttention(
        (out_proj): NonDynamicallyQuantizableLinear(in_features=360, out_features=360, bias=True)
      )
    )
  )
  (ffn): Sequential(
    (0): Dropout(p=0.1, inplace=False)
    (1): Linear(in_features=360, out_features=4, bias=True)
  )
)
Number of parameters = 3,142,444
Moving model to cuda
Epoch 0
Validation auc = 0.247995  Test auc = 0.420911
Epoch 1
Validation auc = 0.275486  Test auc = 0.407621
Epoch 2
Validation auc = 0.546362  Test auc = 0.589728
Epoch 3
Validation auc = 0.538732  Test auc = 0.580536
Epoch 4
Validation auc = 0.384977  Test auc = 0.510592
Epoch 5
Validation auc = 0.402033  Test auc = 0.532684
…
